----------------------------------------------------------------
        Layer (type)               Output Shape         Param #
================================================================
            Conv2d-1         [-1, 32, 244, 244]             896
         MaxPool2d-2         [-1, 32, 122, 122]               0
            Conv2d-3         [-1, 64, 122, 122]          18,496
         MaxPool2d-4           [-1, 64, 61, 61]               0
            Conv2d-5          [-1, 128, 61, 61]          73,856
         MaxPool2d-6          [-1, 128, 30, 30]               0
 AdaptiveAvgPool2d-7            [-1, 128, 1, 1]               0
            Conv2d-8              [-1, 4, 1, 1]             516
================================================================
Total params: 93,764
Trainable params: 93,764
Non-trainable params: 0
----------------------------------------------------------------
Input size (MB): 6.81
Forward/backward pass size (MB): 31.77
Params size (MB): 0.36
Estimated Total Size (MB): 38.94
----------------------------------------------------------------
Epoch 1, Batch 4, Loss: 0.1997, Accuracy: 15.00%
…
