tout
----------------------------------------------------------------
        Layer (type)               Output Shape         Param #
================================================================
            Conv2d-1           [-1, 32, 44, 44]             896
         MaxPool2d-2           [-1, 32, 22, 22]               0
            Conv2d-3           [-1, 64, 22, 22]          18,496
         MaxPool2d-4           [-1, 64, 11, 11]               0
            Conv2d-5          [-1, 128, 11, 11]          73,856
         MaxPool2d-6            [-1, 128, 5, 5]               0
 AdaptiveAvgPool2d-7            [-1, 128, 1, 1]               0
            Conv2d-8              [-1, 4, 1, 1]             516
================================================================
Total params: 93,764
Trainable params: 93,764
Non-trainable params: 0
----------------------------------------------------------------
Input size (MB): 0.22
Forward/backward pass size (MB): 1.03
Params size (MB): 0.36
Estimated Total Size (MB): 1.61
----------------------------------------------------------------
Epoch 1, Batch 1, Loss: 0.1652, Accuracy: 25.00%
…
